…
2021-05-05 10:36:37.631518: I tensorflow/core/platform/cpu_feature_guard.cc:142] This TensorFlow binary is optimized with oneAPI Deep Neural Network Library (oneDNN) to use the following CPU instructions in performance-critical operations:  FMA
To enable them in other operations, rebuild TensorFlow with the appropriate compiler flags.
Segmentation Models: using `keras` framework.
Model: "model"
__________________________________________________________________________________________________
Layer (type)                    Output Shape         Param #     Connected to                     
==================================================================================================
input_1 (InputLayer)            [(None, 512, 512, 3) 0                                            
__________________________________________________________________________________________________
conv2d (Conv2D)                 (None, 256, 256, 32) 896         input_1[0][0]                    
__________________________________________________________________________________________________
batch_normalization (BatchNorma (None, 256, 256, 32) 128         conv2d[0][0]                     
__________________________________________________________________________________________________
activation (Activation)         (None, 256, 256, 32) 0           batch_normalization[0][0]        
__________________________________________________________________________________________________
activation_1 (Activation)       (None, 256, 256, 32) 0           activation[0][0]                 
__________________________________________________________________________________________________
separable_conv2d (SeparableConv (None, 256, 256, 64) 2400        activation_1[0][0]               
__________________________________________________________________________________________________
batch_normalization_1 (BatchNor (None, 256, 256, 64) 256         separable_conv2d[0][0]           
__________________________________________________________________________________________________
activation_2 (Activation)       (None, 256, 256, 64) 0           batch_normalization_1[0][0]      
__________________________________________________________________________________________________
separable_conv2d_1 (SeparableCo (None, 256, 256, 64) 4736        activation_2[0][0]               
__________________________________________________________________________________________________
batch_normalization_2 (BatchNor (None, 256, 256, 64) 256         separable_conv2d_1[0][0]         
__________________________________________________________________________________________________
max_pooling2d (MaxPooling2D)    (None, 128, 128, 64) 0           batch_normalization_2[0][0]      
__________________________________________________________________________________________________
conv2d_1 (Conv2D)               (None, 128, 128, 64) 2112        activation[0][0]                 
__________________________________________________________________________________________________
add (Add)                       (None, 128, 128, 64) 0           max_pooling2d[0][0]              
                                                                 conv2d_1[0][0]                   
__________________________________________________________________________________________________
activation_3 (Activation)       (None, 128, 128, 64) 0           add[0][0]                        
__________________________________________________________________________________________________
separable_conv2d_2 (SeparableCo (None, 128, 128, 128 8896        activation_3[0][0]               
__________________________________________________________________________________________________
batch_normalization_3 (BatchNor (None, 128, 128, 128 512         separable_conv2d_2[0][0]         
…
activation_4 (Activation)       (None, 128, 128, 128 0           batch_normalization_3[0][0]      
__________________________________________________________________________________________________
separable_conv2d_3 (SeparableCo (None, 128, 128, 128 17664       activation_4[0][0]               
__________________________________________________________________________________________________
batch_normalization_4 (BatchNor (None, 128, 128, 128 512         separable_conv2d_3[0][0]         
__________________________________________________________________________________________________
max_pooling2d_1 (MaxPooling2D)  (None, 64, 64, 128)  0           batch_normalization_4[0][0]      
__________________________________________________________________________________________________
conv2d_2 (Conv2D)               (None, 64, 64, 128)  8320        add[0][0]                        
__________________________________________________________________________________________________
add_1 (Add)                     (None, 64, 64, 128)  0           max_pooling2d_1[0][0]            
                                                                 conv2d_2[0][0]                   
__________________________________________________________________________________________________
activation_5 (Activation)       (None, 64, 64, 128)  0           add_1[0][0]                      
__________________________________________________________________________________________________
separable_conv2d_4 (SeparableCo (None, 64, 64, 256)  34176       activation_5[0][0]               
__________________________________________________________________________________________________
batch_normalization_5 (BatchNor (None, 64, 64, 256)  1024        separable_conv2d_4[0][0]         
__________________________________________________________________________________________________
activation_6 (Activation)       (None, 64, 64, 256)  0           batch_normalization_5[0][0]      
__________________________________________________________________________________________________
separable_conv2d_5 (SeparableCo (None, 64, 64, 256)  68096       activation_6[0][0]               
__________________________________________________________________________________________________
batch_normalization_6 (BatchNor (None, 64, 64, 256)  1024        separable_conv2d_5[0][0]         
__________________________________________________________________________________________________
max_pooling2d_2 (MaxPooling2D)  (None, 32, 32, 256)  0           batch_normalization_6[0][0]      
__________________________________________________________________________________________________
conv2d_3 (Conv2D)               (None, 32, 32, 256)  33024       add_1[0][0]                      
__________________________________________________________________________________________________
add_2 (Add)                     (None, 32, 32, 256)  0           max_pooling2d_2[0][0]            
                                                                 conv2d_3[0][0]                   
__________________________________________________________________________________________________
activation_7 (Activation)       (None, 32, 32, 256)  0           add_2[0][0]                      
__________________________________________________________________________________________________
conv2d_transpose (Conv2DTranspo (None, 32, 32, 256)  590080      activation_7[0][0]               
__________________________________________________________________________________________________
batch_normalization_7 (BatchNor (None, 32, 32, 256)  1024        conv2d_transpose[0][0]           
__________________________________________________________________________________________________
activation_8 (Activation)       (None, 32, 32, 256)  0           batch_normalization_7[0][0]      
__________________________________________________________________________________________________
conv2d_transpose_1 (Conv2DTrans (None, 32, 32, 256)  590080      activation_8[0][0]               
__________________________________________________________________________________________________
batch_normalization_8 (BatchNor (None, 32, 32, 256)  1024        conv2d_transpose_1[0][0]         
__________________________________________________________________________________________________
up_sampling2d_1 (UpSampling2D)  (None, 64, 64, 256)  0           add_2[0][0]                      
__________________________________________________________________________________________________
up_sampling2d (UpSampling2D)    (None, 64, 64, 256)  0           batch_normalization_8[0][0]      2021-05-05 10:36:39.662187: I tensorflow/compiler/mlir/mlir_graph_optimization_pass.cc:176] None of the MLIR Optimization Passes are enabled (registered 2)
2021-05-05 10:36:39.662902: I tensorflow/core/platform/profile_utils/cpu_utils.cc:114] CPU Frequency: 2299970000 Hz

__________________________________________________________________________________________________
conv2d_4 (Conv2D)               (None, 64, 64, 256)  65792       up_sampling2d_1[0][0]            
__________________________________________________________________________________________________
add_3 (Add)                     (None, 64, 64, 256)  0           up_sampling2d[0][0]              
                                                                 conv2d_4[0][0]                   
__________________________________________________________________________________________________
activation_9 (Activation)       (None, 64, 64, 256)  0           add_3[0][0]                      
__________________________________________________________________________________________________
conv2d_transpose_2 (Conv2DTrans (None, 64, 64, 128)  295040      activation_9[0][0]               
__________________________________________________________________________________________________
batch_normalization_9 (BatchNor (None, 64, 64, 128)  512         conv2d_transpose_2[0][0]         
__________________________________________________________________________________________________
activation_10 (Activation)      (None, 64, 64, 128)  0           batch_normalization_9[0][0]      
__________________________________________________________________________________________________
conv2d_transpose_3 (Conv2DTrans (None, 64, 64, 128)  147584      activation_10[0][0]              
__________________________________________________________________________________________________
batch_normalization_10 (BatchNo (None, 64, 64, 128)  512         conv2d_transpose_3[0][0]         
__________________________________________________________________________________________________
up_sampling2d_3 (UpSampling2D)  (None, 128, 128, 256 0           add_3[0][0]                      
__________________________________________________________________________________________________
up_sampling2d_2 (UpSampling2D)  (None, 128, 128, 128 0           batch_normalization_10[0][0]     
…
__________________________________________________________________________________________________
add_4 (Add)                     (None, 128, 128, 128 0           up_sampling2d_2[0][0]            
                                                                 conv2d_5[0][0]                   
__________________________________________________________________________________________________
activation_11 (Activation)      (None, 128, 128, 128 0           add_4[0][0]                      
__________________________________________________________________________________________________
conv2d_transpose_4 (Conv2DTrans (None, 128, 128, 64) 73792       activation_11[0][0]              
__________________________________________________________________________________________________
batch_normalization_11 (BatchNo (None, 128, 128, 64) 256         conv2d_transpose_4[0][0]         
__________________________________________________________________________________________________
activation_12 (Activation)      (None, 128, 128, 64) 0           batch_normalization_11[0][0]     
__________________________________________________________________________________________________
conv2d_transpose_5 (Conv2DTrans (None, 128, 128, 64) 36928       activation_12[0][0]              
__________________________________________________________________________________________________
batch_normalization_12 (BatchNo (None, 128, 128, 64) 256         conv2d_transpose_5[0][0]         
__________________________________________________________________________________________________
up_sampling2d_5 (UpSampling2D)  (None, 256, 256, 128 0           add_4[0][0]                      
__________________________________________________________________________________________________
up_sampling2d_4 (UpSampling2D)  (None, 256, 256, 64) 0           batch_normalization_12[0][0]     
__________________________________________________________________________________________________
conv2d_6 (Conv2D)               (None, 256, 256, 64) 8256        up_sampling2d_5[0][0]            
__________________________________________________________________________________________________
add_5 (Add)                     (None, 256, 256, 64) 0           up_sampling2d_4[0][0]            
                                                                 conv2d_6[0][0]                   
__________________________________________________________________________________________________
activation_13 (Activation)      (None, 256, 256, 64) 0           add_5[0][0]                      
__________________________________________________________________________________________________
conv2d_transpose_6 (Conv2DTrans (None, 256, 256, 32) 18464       activation_13[0][0]              
__________________________________________________________________________________________________
batch_normalization_13 (BatchNo (None, 256, 256, 32) 128         conv2d_transpose_6[0][0]         
__________________________________________________________________________________________________
activation_14 (Activation)      (None, 256, 256, 32) 0           batch_normalization_13[0][0]     
__________________________________________________________________________________________________
conv2d_transpose_7 (Conv2DTrans (None, 256, 256, 32) 9248        activation_14[0][0]              
__________________________________________________________________________________________________
batch_normalization_14 (BatchNo (None, 256, 256, 32) 128         conv2d_transpose_7[0][0]         
__________________________________________________________________________________________________
up_sampling2d_7 (UpSampling2D)  (None, 512, 512, 64) 0           add_5[0][0]                      
__________________________________________________________________________________________________
up_sampling2d_6 (UpSampling2D)  (None, 512, 512, 32) 0           batch_normalization_14[0][0]     
__________________________________________________________________________________________________
conv2d_7 (Conv2D)               (None, 512, 512, 32) 2080        up_sampling2d_7[0][0]            
__________________________________________________________________________________________________
add_6 (Add)                     (None, 512, 512, 32) 0           up_sampling2d_6[0][0]            
                                                                 conv2d_7[0][0]                   
__________________________________________________________________________________________________
conv2d_8 (Conv2D)               (None, 512, 512, 1)  289         add_6[0][0]                      
==================================================================================================
Total params: 2,058,401
Trainable params: 2,054,625
Non-trainable params: 3,776
__________________________________________________________________________________________________
loaded model from file
start:  2021-05-05 10:36:38.479383
Epoch 1/30
2021-05-05 10:36:55.206470: W tensorflow/core/framework/cpu_allocator_impl.cc:80] Allocation of 2147483648 exceeds 10% of free system memory.
…
